…
Num of classes in train and test together: 29

Creating standard SNN with simple similarity measure:  SimpleSimilarityMeasure.ABS_MEAN
Creating CNN with 2d kernel encoder with an input shape:  (1000, 61)
Attention: No 1d conv layer on top of 2d conv is used!

Model: "functional_1"
__________________________________________________________________________________________________
Layer (type)                    Output Shape         Param #     Connected to                     
==================================================================================================
Input0 (InputLayer)             [(None, 1000, 61, 1) 0                                            
__________________________________________________________________________________________________
reshape (Reshape)               (None, 1000, 61)     0           Input0[0][0]                     
__________________________________________________________________________________________________
conv1d (Conv1D)                 (None, 1000, 61)     3782        reshape[0][0]                    
__________________________________________________________________________________________________
tf_op_layer_ExpandDims (TensorF [(None, 1000, 61, 1) 0           conv1d[0][0]                     
__________________________________________________________________________________________________
tf_op_layer_concat (TensorFlowO [(None, 1000, 61, 2) 0           Input0[0][0]                     
                                                                 tf_op_layer_ExpandDims[0][0]     
__________________________________________________________________________________________________
conv2d (Conv2D)                 (None, 998, 61, 128) 896         tf_op_layer_concat[0][0]         
__________________________________________________________________________________________________
batch_normalization (BatchNorma (None, 998, 61, 128) 512         conv2d[0][0]                     
__________________________________________________________________________________________________
re_lu (ReLU)                    (None, 998, 61, 128) 0           batch_normalization[0][0]        
__________________________________________________________________________________________________
conv2d_1 (Conv2D)               (None, 996, 61, 64)  24640       re_lu[0][0]                      
__________________________________________________________________________________________________
batch_normalization_1 (BatchNor (None, 996, 61, 64)  256         conv2d_1[0][0]                   
__________________________________________________________________________________________________
re_lu_1 (ReLU)                  (None, 996, 61, 64)  0           batch_normalization_1[0][0]      
__________________________________________________________________________________________________
conv2d_2 (Conv2D)               (None, 996, 61, 1)   65          re_lu_1[0][0]                    
__________________________________________________________________________________________________
batch_normalization_2 (BatchNor (None, 996, 61, 1)   4           conv2d_2[0][0]                   
__________________________________________________________________________________________________
re_lu_2 (ReLU)                  (None, 996, 61, 1)   0           batch_normalization_2[0][0]      
__________________________________________________________________________________________________
reshape_1 (Reshape)             (None, 996, 61)      0           re_lu_2[0][0]                    
__________________________________________________________________________________________________
dropout (Dropout)               (None, 996, 61)      0           reshape_1[0][0]                  
__________________________________________________________________________________________________
tf_op_layer_Transpose (TensorFl [(None, 61, 996)]    0           dropout[0][0]                    
__________________________________________________________________________________________________
input_1 (InputLayer)            [(None, 61)]         0                                            
__________________________________________________________________________________________________
graph_conv (GraphConv)          (None, 61, 64)       63808       tf_op_layer_Transpose[0][0]      
                                                                 input_1[0][0]                    
__________________________________________________________________________________________________
global_attention_pool (GlobalAt (None, 64)           8320        graph_conv[0][0]                 
==================================================================================================
Total params: 102,283
Trainable params: 101,897
Non-trainable params: 386
__________________________________________________________________________________________________

Training:
Timestamp: 16.11 08:40:47 (4.39 Seconds since last output) - Epoch: 0 - Loss: 5.52448 - Name: 
…
